src/model/model-0.1.0.pth (torch, 333046 bytes, 14 tensors)

fc1.weight f4 [256, 43]
-0.106889844 -0.046593565 -0.019061359 0.06327206 0.13291642 -0.10939366 -0.006148162 -0.06629947
-0.062195487 0.110013366 0.14368048 -0.023904692 -0.107569456 0.020699771 0.1426232 -0.019074902
-0.08745925 -0.15325405 -0.14533426 0.12934196 0.013143922 -0.049363114 -0.09899494 -0.042157646
0.09714228 -0.09003655 -0.05389383 0.0047183107 -0.050478403 -0.03715581 0.102590136 -0.11128644
0.033111636 0.05374859 0.11987781 0.09140587 -0.07011672 -0.14510337 0.11872198 0.08906938
0.11104915 0.16182435 -0.11386903 0.05957884 0.086499706 0.07467905 0.08902476 0.13049808
-0.09941693 -0.042651646 0.013494365 0.1181959 -0.061920524 -0.04509782 0.121459894 -0.087894924
-0.06966084 -0.09396222 0.099840045 -0.15792882 0.10270968 -0.042288244 0.039353445 -0.08420096
-0.0907713 -0.0038064343 -0.112698615 -0.13627751 -0.041822728 0.053104986 -0.10116435 -0.049269408
-0.11514999 -0.09939959 -0.0854551 0.09950073 -0.11720363 -0.004241399 -0.033940054 -0.09630277
-0.10267021 0.00452836 0.15122944 0.13286278 -0.1787542 -0.055270467 0.03669452 -0.15284985
0.0204941 -0.002007647 -0.165657 0.06798162 -0.03928586 0.08996431 0.09857946 -0.058682036
-0.067436196 0.038742926 -0.08218442 -0.042416435 -0.07370336 0.105964184 -0.027523194 -0.15548831
-0.007886406 -0.14437902 0.03740302 -0.060939267 0.12693194 0.1712092 0.110445246 -0.1480214
-0.0080568455 -0.15143055 0.07308603 0.0008283983 0.055400237 0.004580102 -0.007407939 -0.027773576
-0.19063623 0.052313823 0.0692578 -0.040725738 -0.07646445 0.05126355 -0.012608479 0.07465808
0.0904642 -0.01682737 0.03705695 -0.012618154 0.094828844 0.096021965 -0.118270464 -0.06284441
-0.11088114 -0.08609781 0.06950222 -0.12669384 0.062326178 -0.13055143 0.0076498725 -0.06544837
-0.027806446 0.07087361 -0.15838172 0.022798233 -0.03779923 -0.097233534 0.03461584 0.09850697
0.10893874 0.034529205 0.02197935 -0.13008139 -0.057345055 -0.02353816 -0.11156811 0.061843045
0.08797218 -0.004631934 -0.03828755 0.09711283 -0.037690934 0.13414472 -0.07488044 -0.13335973
-0.011545207 0.18356682 0.0018108767 0.025240306 -0.13267726 -0.11158209 -0.018806415 0.03139834
0.11777731 0.12770039 -0.029106377 -0.06975923 -0.12487894 -0.0031726984 -0.16700745 -0.06776739
0.01561526 0.041321184 -0.030106671 -0.004169196 0.05979404 0.16207759 -0.092437305 0.0347002
0.10682007 0.0016603605 -0.031987123 0.028103877 0.08330671 -0.03887797 -0.058921915 -0.17298706
0.16895404 -0.112710066 0.06526893 0.08048243 -0.02714712 -0.10549504 0.11479147 -0.06029499
-0.12683304 0.031651244 0.028944017 0.10066732 -0.1232231 0.14073284 -0.023642605 -0.1478117
0.09614555 0.10975585 0.12801114 -0.12618703 -0.09683689 -0.03993623 -0.06150672 0.06090227
-0.06030614 -0.08629522 0.09296704 -0.0066338433 0.011487735 0.009931856 -0.10077155 -0.0657779
-0.06981302 0.08217788 0.124536574 0.078422084 -0.123921655 0.01567684 0.0021941166 -0.017124856
0.057589024 -0.098379076 -0.07873578 0.15710242 -0.07098157 0.12910691 0.13133858 0.072880566
0.066633284 -0.08176985 -0.17994517 0.009909145 0.08050826 -0.0825449 0.118633546 0.085687
00000000: 10e9 dabd e5d8 3ebd 9126 9cbc c894 813d
00000010: 3e1b 083e c909 e0bd 8576 c9bb 04c8 87bd
00000020: b2c0 7ebd b04e e13d fa20 133e c6d3 c3bc
00000030: 604d dcbd 9192 a93c d10b 123e f842 9cbc
00000040: d61d b3bd a1ee 1cbe 81d2 14be 3872 043e
00000050: 9b59 573c fa30 4abd dcbd cabd 7fad 2cbd
00000060: 88f2 c63d 1565 b8bd c7bf 5cbd 0f9c 9a3b
00000070: 71c2 4ebd b130 18bd c71a d23d 25ea e3bd
00000080: 11a0 073d 7b27 5c3d 7f82 f53d 0033 bb3d
00000090: 5b99 8fbd fa95 14be 8224 f33d 026a b63d
000000a0: bd6d e33d 48b5 253e 2a34 e9bd f108 743d
000000b0: c226 b13d 54f1 983d 9d52 b63d 4aa1 053e
000000c0: 1a9b cbbd 7eb3 2ebd 7817 5d3c b110 f23d
000000d0: 60a0 7dbd 7eb8 38bd f7bf f83d 4102 b4bd
000000e0: 58aa 8ebd 446f c0bd f078 cc3d 18b8 21be
000000f0: 7459 d23d 7036 2dbd 1431 213d 8e71 acbd
00000100: 4ee6 b9bd 5f75 79bb 88ce e6bd 558c 0bbe
00000110: 4f4e 2bbd 9d84 593d 412f cfbd b8ce 49bd
00000120: c2d3 ebbd 0392 cbbd 1503 afbd 0ac7 cb3d
00000130: 7508 f0bd 6ffb 8abb ba04 0bbd 633a c5bd
00000140: c244 d2bd a362 943b e4db 1a3e 2e0d 083e
00000150: 570b 37be 4963 62bd fe4c 163d ac84 1cbe
00000160: 3ee3 a73c ba92 03bb fda1 29be f339 8b3d
00000170: 36ea 20bd 353f b83d 07e4 c93d 935c 70bd
00000180: fd1b 8abd e7b0 1e3d 4e50 a8bd dbbc 2dbd
00000190: caf1 96bd c003 d93d 5278 e1bc 5438 1fbe
000001a0: fc35 01bc 18d8 13be e933 193d 749b 79bd
000001b0: 72fa 013e 7751 2f3e 1e31 e23d ec92 17be
000001c0: dc00 04bc 9c10 1bbe 21ae 953d de28 593a
000001d0: 5ceb 623d ae14 963b 4cbe f2bb 6985 e3bc
000001e0: 2536 43be 0547 563d 09d7 8d3d 08d0 26bd
000001f0: 6599 9cbd baf9 513d cb93 4ebc 56e6 983d
00000200: 4b45 b93d 8dd9 89bc 07c9 173d 60bc 4ebc
00000210: a035 c23d 2aa7 c43d c937 f2bd 92b4 80bd
00000220: a715 e3bd 0c54 b0bd 2e57 8e3d 08bc 01be
00000230: bc49 7f3d 46af 05be c8ab fa3b cc09 86bd
00000240: 58ca e3bc 2f26 913d d12e 22be 5cc3 ba3c
00000250: 5ed3 1abd 6022 c7bd 57c9 0d3d 06be c93d
00000260: 461b df3d 7f6e 0d3d 0a0e b43c 0e34 05be
00000270: a6e2 6abd 19d3 c0bc d27d e4bd 224f 7d3d
00000280: c22a b43d 7bc7 97bb 68d3 1cbd 17e3 c63d
00000290: cf61 1abd 3c5d 093e eb5a 99bd 748f 08be
000002a0: 1c28 3dbc f1f8 3b3e f05a ed3a c2c4 ce3c
000002b0: 8cdc 07be 2785 e4bd e90f 9abc 8c9b 003d
000002c0: 3b35 f13d e4c3 023e 7f70 eebc eddd 8ebd
000002d0: 88c0 ffbd 0ced 4fbb 0004 2bbe a1c9 8abd
000002e0: 26d7 7f3c 6740 293d 44a2 f6bc c09d 88bb
000002f0: 98ea 743d abf7 253e c54f bdbd cc21 0e3d
00000300: 7bc4 da3d 74a0 d93a ee04 03bd 1a3a e63c
00000310: b59c aa3d 823e 1fbd 1b58 71bd 8523 31be
00000320: 4a02 2d3e 89d4 e6bd b7ab 853d f9d3 a43d
00000330: a363 debc c90d d8bd ca17 eb3d e1f7 76bd
00000340: 85e0 01be bca4 013d 011c ed3c ab2a ce3d
00000350: 655c fcbd 451c 103e 23ae c1bc f35b 17be
00000360: f5e7 c43d adc7 e03d 5a15 033e 2c37 01be
00000370: 6b52 c6bd 2c94 23bd 78ee 7bbd a974 793d
00000380: 9203 77bd 8cbb b0bd 8165 be3d b660 d9bb
00000390: 0e37 3c3c 39b9 223c 5061 cebd 90b6 86bd
000003a0: 21fa 8ebd e04c a83d 080d ff3d c29b a03d
000003b0: a3ca fdbd b76c 803c 2bcb 0f3b 6d49 8cbc
000003c0: 78e2 6b3d f87a c9bd 3a40 a1bd 75df 203e
000003d0: c95e 91bd 9a34 043e 9f7d 063e 6842 953d
000003e0: 0877 883d f376 a7bd 8c43 38be f759 223c
000003f0: 84e1 a43d 4d0d a9bd 25f6 f23d aa7c af3d

fc1.bias f4 [256]
0.12735969 -0.06727584 -0.14835426 -0.067503415 0.12624365 -0.016803423 -0.060068004 0.108740546
0.005563135 -0.0028672775 -0.012200136 0.14280057 -0.059290294 -0.14458154 0.107357174 0.011507994
-0.018871691 0.08923278 -0.06922223 -0.09569801 0.022333222 -0.09823525 0.04022719 -0.044814225
-0.055169825 0.13767128 -0.09733865 -0.13087983 -0.055046838 -0.02224996 -0.10458244 0.022054788
0.12357332 -0.050019577 -0.096277155 -0.017018747 0.018755501 0.06672292 0.0984182 0.005310298
0.122122414 0.11153318 0.12211175 0.093696564 0.06392228 -0.04675518 0.0019710911 0.11942992
-0.066391245 -0.040973935 -0.13579391 0.13335313 -0.14865315 -0.11094485 0.05122341 -0.14045826
0.10247258 0.05606575 0.017198442 0.084414 0.07368389 0.1169648 -0.06068395 -0.09376614
0.04445115 -0.044374067 -0.099112265 -0.08904112 -0.14172944 0.006762797 -0.11142251 -0.11130443
0.07837083 -0.015268769 0.053999875 0.06913399 0.0940438 -0.14724718 0.11685921 -0.11398271
0.021510951 -0.1071021 0.018793553 0.12250466 -0.005423866 -0.115419775 0.14643806 -0.033859488
-0.11711435 -0.056163415 -0.08752941 0.070573635 -0.007860345 -0.04273473 -0.09125404 0.07462993
-0.050402507 -0.037748966 -0.099841915 -0.010950905 -0.065648235 0.10697935 0.0811637 0.07944405
-0.02344645 -0.1141456 -0.09578993 -0.1407376 -0.022075608 -0.10859196 0.0012493388 0.06700394
-0.1545118 -0.08823984 0.118095875 -0.0873706 0.028459202 0.14251666 0.024687728 0.06432246
0.009129216 -0.10011327 0.09751312 -0.039023172 -0.13040118 0.11604276 -0.13239262 -0.08128422
0.034435835 0.0557993 0.08282596 -0.11315968 -0.057417512 -0.023990046 0.04240914 -0.1374365
0.06351649 0.11824915 -0.076778024 0.024148123 0.15500075 -0.11742266 0.09265595 0.08131082
0.013319065 0.12689093 -0.1064266 0.11576657 0.04332371 -0.112564065 -0.0076174643 0.09962225
0.12437163 -0.13214324 0.12334401 -0.024552453 0.06622188 0.07242056 -0.0730304 -0.045812577
-0.084285714 0.09169872 0.06423817 -0.010422219 -0.014814903 -0.0041261525 0.12260186 -0.081040785
-0.06545434 0.10082987 0.0448699 -0.028999653 -0.07263722 0.06114467 -0.09041877 0.060796704
0.114150785 0.08105005 -0.06489051 0.010960634 -0.11803065 -0.06793727 0.13801332 0.12492441
-0.15294065 -0.10175447 -0.090764135 0.05974837 0.067902364 -0.038491447 -0.13353413 -0.13706397
-0.009765733 0.09418816 0.08998129 0.080881685 0.046393197 -0.16309835 0.10034697 0.0025389895
-0.11623035 -0.07116507 -0.09228595 0.08718258 0.12552813 0.056950707 0.049752165 -0.08081701
-0.027989905 -0.11100915 -0.07240567 0.010213651 0.097109355 -0.07908768 -0.04805838 -0.12933938
-0.11342507 0.050421376 0.09116361 0.053372536 -0.083639584 0.13776024 -0.11658356 0.0071155443
0.114252634 0.09370354 0.029366728 0.026971862 0.03161639 -0.15061586 0.11352945 0.043015327
-0.08742382 -0.07424361 0.1354285 -0.13712296 0.10862213 -0.12627989 0.046465904 -0.08143914
-0.08566385 -0.11632312 -0.044931777 -0.076502055 -0.014609243 -0.0114719225 -0.07875254 0.07989771
0.12102533 -0.15646397 0.13642667 0.024534054 0.032047447 -0.07545405 0.12889367 -0.12145333
00000000: 946a 023e eac7 89bd 2eea 17be 3b3f 8abd
00000010: 0446 013e 55a7 89bc de09 76bd 5db3 de3d
00000020: f54a b63b efe8 3bbb 14e3 47bc 503a 123e
00000030: 61da 72bd 2f0d 14be 14de db3d 068c 3c3c
00000040: ce98 9abc adbf b63d 62c4 8dbd 51fd c3bd
00000050: 29f4 b63c 902f c9bd 44c5 243d 1f8f 37bd
00000060: c1f9 61bd b3f9 0c3e 7c59 c7bd 5d05 06be
00000070: cb78 61bd 8c45 b6bc 512f d6bd 3eac b43c
00000080: 0214 fd3d 54e1 4cbd f52c c5bd e66a 8bbc
00000090: 23a5 993c 07a6 883d 7b8f c93d 0202 ae3b
000000a0: 511b fa3d 826b e43d ba15 fa3d fce3 bf3d
000000b0: afe9 823d 5c82 3fbd 6c2d 013b ad97 f43d
000000c0: 22f8 87bd 49d4 27bd 8f0d 0bbe b98d 083e
000000d0: 8838 18be 0e37 e3bd a3cf 513d 4ad4 0fbe
000000e0: 25dd d13d 33a5 653d bfe3 8c3c 3fe1 ac3d
000000f0: 94e7 963d 3e8b ef3d bc8f 78bd 7608 c0bd
00000100: 6912 363d 95c1 35bd 5ffb cabd 315b b6bd
00000110: 8621 11be 749a dd3b 7c31 e4bd 94f3 e3bd
00000120: e380 a03d dc29 7abc f92e 5d3d 1f96 8d3d
00000130: 099a c03d f7c7 16be e253 ef3d c46f e9bd
00000140: bc37 b03c 5958 dbbd f0f4 993c b9e3 fa3d
00000150: b0ba b1bb 3461 ecbd dcf3 153e 3fb0 0abd
00000160: a6d9 efbd 9c0b 66bd 9f42 b3bd e988 903d
00000170: adc8 00bc 9d0a 2fbd 66e3 babd 94d7 983d
00000180: dc72 4ebd a99e 1abd eb79 ccbd 6d6b 33bc
00000190: 9572 86bd fd17 db3d 2739 a63d 90b3 a23d
000001a0: c512 c0bc 2bc5 e9bd 832d c4bd 841d 10be
000001b0: e8d7 b4bc 7665 debd dbc0 a33a 5d39 893d
000001c0: 5738 1ebe 17b7 b4bd 40dc f13d 5bef b2bd
000001d0: 4623 e93c e3ef 113e eb3d ca3c 7ebb 833d
000001e0: b592 153c 3008 cdbd f5b4 c73d c3d6 1fbd
000001f0: e387 05be d4a7 ed3d ee91 07be 5778 a6bd
00000200: 970c 0d3d cf8d 643d a8a0 a93d 43c0 e7bd
00000210: a02e 6bbd c686 c4bc 35b5 2d3d 27bc 0cbe
00000220: ef14 823d 9c2c f23d cc3d 9dbd 49d2 c53c
00000230: 84b8 1e3e 4b7b f0bd 67c2 bd3d 4a86 a63d
00000240: 3538 5a3c b2ef 013e 30f6 d9bd 0617 ed3d
00000250: 3474 313d fd87 e6bd ec9b f9bb c006 cc3d
00000260: 8eb6 fe3d 8f50 07be c99b fc3d 3a22 c9bc
00000270: 569f 873d 3b51 943d f690 95bd f8a5 3bbd
00000280: fd9d acbd 8acc bb3d 4d8f 833d f4c1 2abc
00000290: 35ba 72bc ad34 87bb af16 fb3d b6f8 a5bd
000002a0: ed0c 86bd e47f ce3d 80c9 373d ae90 edbc
000002b0: d3c2 94bd d572 7a3d 7a2d b9bd f705 793d
000002c0: e3c7 e93d 92fd a53d 51e5 84bd 3b94 333c
000002d0: 0eba f1bd b222 8bbd 5d53 0d3e 5ed8 ff3d
000002e0: 799c 1cbe a664 d0bd 8ce2 b9bd b5ba 743d
000002f0: 6510 8b3d 35a9 1dbd 2cbd 08be 7f5a 0cbe
00000300: 7400 20bc b9e5 c03d 1c48 b83d 4ca5 a53d
00000310: cb06 3e3d 4103 27be b682 cd3d 2d65 263b
00000320: 2e0a eebd febe 91bd 6b00 bdbd c88c b23d
00000330: 728a 003e 2545 693d edc8 4b3d 6383 a5bd
00000340: 164b e5bc c458 e3bd 6d49 94bd 2857 273c
00000350: 45e1 c63d b9f8 a1bd ddd8 44bd 8b71 04be
00000360: 674b e8bd a586 4e3d fdb3 ba3d 299d 5a3d
00000370: 3b4b abbd 0511 0d3e 5dc3 eebd 8329 e93b
00000380: 49fd e93d a4e7 bf3d 7e92 f03c 18f4 dc3c
00000390: 3080 013d 0b3b 1abe 2182 e83d d730 303d
000003a0: 420b b3bd 090d 98bd c5ad 0a3e f669 0cbe
000003b0: 4775 de3d 844f 01be 0853 3e3d 90c9 a6bd
000003c0: 8770 afbd d13a eebd 620a 38bd 1cad 9cbd
000003d0: 9b5b 6fbc bbf4 3bbc 0349 a1bd 69a1 a33d
000003e0: 21dc f73d 1738 20be 6fb3 0b3e a4fb c83c
000003f0: 2f44 033d a787 9abd b4fc 033e 86bc f8bd

bn1.weight f4 [256]
1.0293447 0.9907961 0.9786878 0.98947006 1.006925 1.0142993 0.9849545 1.031796
0.99610704 1.0222051 0.9980284 1.0011272 0.9929411 0.9855906 0.9693774 0.9896384
1.0160809 1.0105865 1.0072163 1.0081949 1.0073283 0.97840476 1.0069413 1.0209979
1.0001525 1.0162637 1.0089709 1.0067751 1.0045694 0.99098814 0.99251646 0.99760693
1.0209445 1.0310935 1.006755 1.0044051 1.0072316 0.98581135 0.99759746 0.97715646
1.0146236 0.98455566 0.9819939 1.0319585 0.99410063 1.007761 0.9938842 1.0041128
1.0190388 0.9801315 1.0014347 1.0027697 0.99854785 0.9934819 0.9861627 1.0010264
0.9798618 0.99838144 0.97303563 0.99778587 1.0069001 0.98272645 1.0039188 0.9904089
1.0271171 0.97803587 0.96592015 0.9866301 0.9864564 1.0261981 0.97468466 1.026012
0.9736261 0.9820522 0.9805718 1.022075 1.0037258 0.9644425 0.98973924 0.99968153
0.9958389 1.0145829 1.012388 0.9992128 1.0204403 0.97889644 1.0059855 0.98223877
1.0029644 0.97889316 1.0102673 1.0121558 0.9822303 1.0058433 1.0125334 1.0094779
1.0011276 1.0127373 1.0195909 0.98678523 1.0001247 0.981656 0.9991309 0.9818881
0.9860679 0.99949014 0.9964041 1.0325677 1.0216712 1.0310292 0.9952756 0.9775174
1.0150876 1.0218632 1.0141374 0.9982023 0.9934364 0.9709317 0.98714674 1.0219806
0.9763373 0.9957502 1.0022972 1.0009531 1.0053017 1.0199862 0.99757016 1.0326099
1.023129 0.9692559 0.97265315 1.0021137 1.0083796 0.98914814 1.0112581 1.0323427
0.997661 1.0315603 1.0018531 0.99267876 0.97533023 1.0119647 0.9995163 0.9913709
0.98878765 0.9984837 0.98456013 1.0200597 0.9844187 0.99986523 0.98927903 1.0098914
0.9957102 0.98399854 0.97860634 1.0108292 0.98357403 0.98563826 1.0048552 0.9790399
0.98020685 1.0126438 1.002692 1.0127063 1.0228107 0.98732114 1.0085812 1.0138557
1.0106913 1.0220377 0.9911887 0.99328244 0.99778074 1.0284814 1.0216805 1.0216966
0.97279024 1.0247912 1.0152102 1.0371068 1.0082316 0.98802376 1.0311494 0.9785528
1.0095419 0.9925797 0.9784381 0.96180135 0.98433524 1.0234995 0.98196715 0.99247634
0.9941143 0.9880053 1.0002882 0.9880088 0.9849489 0.9991851 1.0154057 1.0120364
0.9791912 0.98061854 0.9983105 0.9812587 1.0171835 1.0317656 0.9996924 1.0182176
0.9821048 1.0139749 1.0083057 0.99061626 0.9941788 0.98903424 1.0033109 0.9823774
1.0138913 1.0049548 1.0293434 1.0137205 0.99871427 0.99695086 1.0143427 1.0171735
1.0096316 1.0231183 1.0007092 1.001926 0.99492013 1.0071805 0.9967252 0.99215317
1.0183539 0.98582864 0.9956854 1.0219536 0.9931575 1.0100803 0.9891701 1.0194787
1.0191313 0.9808438 1.0183979 0.9973283 0.9744242 0.98267865 1.0281246 0.97461766
1.003212 1.0127693 1.0020163 0.9971437 1.0060762 0.96239215 1.0148274 0.9980325
00000000: 91c1 833f d0a4 7d3f 498b 7a3f e94d 7d3f
00000010: ebe2 803f 8fd4 813f fa25 7c3f e411 843f
00000020: df00 7f3f 9ed7 823f ca7e 7f3f f024 803f
00000030: 6331 7e3f aa4f 7c3f 1e29 783f f158 7d3f
00000040: f00e 823f e65a 813f 77ec 803f 880c 813f
00000050: 22f0 803f bc78 7a3f 74e3 803f 0fb0 823f
00000060: ff04 803f ee14 823f f525 813f 02de 803f
00000070: bb95 803f 66b1 7d3f 8f15 7e3f 2b63 7f3f
00000080: 4fae 823f dffa 833f 59dd 803f 5990 803f
00000090: f7ec 803f 225e 7c3f 8c62 7f3f ed26 7a3f
000000a0: 30df 813f d70b 7c3f f463 7b3f 3717 843f
000000b0: 617d 7e3f 50fe 803f 326f 7e3f c586 803f
000000c0: dd6f 823f e6e9 7a3f 032f 803f c25a 803f
000000d0: d5a0 7f3f d454 7e3f 2975 7c3f a221 803f
000000e0: 39d8 7a3f ed95 7f3f dd18 793f e56e 7f3f
000000f0: 1ae2 803f f693 7b3f 6980 803f 708b 7d3f
00000100: 9378 833f 8f60 7a3f 8b46 773f ca93 7c3f
00000110: 6888 7c3f 765a 833f ef84 793f 5c54 833f
00000120: 8f3f 793f c667 7b3f c106 7b3f 5bd3 823f
00000130: 167a 803f b4e5 763f 8d5f 7d3f 21eb 7f3f
00000140: 4cef 7e3f dadd 813f ee95 813f 69cc 7f3f
00000150: ca9d 823f f598 7a3f 22c4 803f 0074 7b3f
00000160: 2361 803f be98 7a3f 7050 813f 528e 813f
00000170: 7273 7b3f 79bf 803f b29a 813f 9236 813f
00000180: f324 803f 60a1 813f f481 823f f59d 7c3f
00000190: 1604 803f cf4d 7b3f 0bc7 7f3f 055d 7b3f
000001a0: f26e 7c3f 96de 7f3f 5714 7f3f 2e2b 843f
000001b0: 1fc6 823f c4f8 833f 62ca 7e3f 953e 7a3f
000001c0: 64ee 813f 6acc 823f 41cf 813f 308a 7f3f
000001d0: d951 7e3f fb8e 783f a6b5 7c3f 43d0 823f
000001e0: 3ef1 793f 7ce9 7e3f 464b 803f 3b1f 803f
000001f0: baad 803f e88e 823f c260 7f3f 902c 843f
00000200: e4f5 823f 2821 783f ccff 783f 4345 803f
00000210: 9512 813f d038 7d3f e870 813f ce23 843f
00000220: b666 7f3f 2b0a 843f b93c 803f 3220 7e3f
00000230: 3eaf 793f 0f88 813f 4de0 7f3f 7cca 7d3f
00000240: 3021 7d3f a19c 7f3f 220c 7c3f 5191 823f
00000250: dd02 7c3f 2bf7 7f3f 6441 7d3f 1f44 813f
00000260: dde6 7e3f 54e7 7b3f f285 7a3f da62 813f
00000270: 82cb 7b3f ca52 7c3f 189f 803f 5ca2 7a3f
00000280: d6ee 7a3f 509e 813f 3658 803f 5ca0 813f
00000290: 76eb 823f 14c1 7c3f 3019 813f 06c6 813f
000002a0: 555e 813f 22d2 823f 8bbe 7d3f c247 7e3f
000002b0: 8f6e 7f3f 47a5 833f 6dc6 823f f4c6 823f
000002c0: c808 793f 5c2c 833f 68f2 813f eabf 843f
000002d0: bc0d 813f 20ef 7c3f b4fc 833f 7082 7a3f
000002e0: ab38 813f b419 7e3f eb7a 7a3f 9d38 763f
000002f0: 65fd 7b3f 0802 833f 3362 7b3f ee12 7e3f
00000300: 467e 7e3f eaed 7c3f 7209 803f 25ee 7c3f
00000310: 9c25 7c3f 98ca 7f3f d0f8 813f 698a 813f
00000320: 46ac 7a3f d109 7b3f 4791 7f3f c533 7b3f
00000330: 1233 823f e510 843f d7eb 7f3f f454 823f
00000340: 386b 7b3f eec9 813f 2910 813f 0799 7d3f
00000350: 8082 7e3f 5931 7d3f 7e6c 803f 167d 7b3f
00000360: 31c7 813f 5ca2 803f 86c1 833f 98c1 813f
00000370: bdab 7f3f 2c38 7f3f fbd5 813f be32 823f
00000380: 9c3b 813f 8af5 823f 3d17 803f 1c3f 803f
00000390: 16b3 7e3f 4aeb 803f 6229 7f3f c0fd 7d3f
000003a0: 6c59 823f 445f 7c3f 3de5 7e3f 60cf 823f
000003b0: 923f 7e3f 504a 813f 403a 7d3f 477e 823f
000003c0: e572 823f 9418 7b3f dd5a 823f e850 7f3f
000003d0: dd73 793f d490 7b3f 9699 833f 8b80 793f
000003e0: 4069 803f 6da2 813f 1242 803f cf44 7f3f
000003f0: 1bc7 803f 555f 763f dde5 813f 0f7f 7f3f

bn1.bias f4 [256]
-0.0019903854 -0.004690261 -0.022777127 -0.035240903 -0.013734917 -0.0021626651 -0.02240771 -0.02033066
-0.030284217 0.021234283 -0.0025740801 -0.025901962 -0.003764779 -0.032522023 -0.037461214 -0.014540915
0.0005190468 0.004018254 -0.043130606 -0.017183475 -0.017490048 -0.02719991 0.0063199084 0.0004180086
-0.021615025 0.014571887 -0.013764083 0.016183997 -0.017198158 0.013479779 -0.018577782 0.0017881072
-0.0075554145 -0.033197265 -0.012546006 0.0061143194 0.025045767 -0.022913517 -0.0022044275 -0.03325268
-0.022739572 -0.0025574514 -0.013505287 -0.03904552 0.008970384 0.023649264 0.0005960263 -0.022211717
-0.03387887 -0.017203696 -0.01967785 -0.02434807 -0.0057256194 -0.029556977 -0.021622535 -0.03794008
-0.0057185465 -0.015118059 -0.031027382 0.032138865 0.013968817 0.008584321 0.004532461 -0.039248656
-0.029871084 -0.028776072 -0.025482565 -0.016227752 -0.022861637 0.032970738 -0.010092637 0.0075207716
-0.022881577 -0.0029065511 0.0049289 0.0016177008 0.010476253 -0.028770518 0.0011676614 -0.003916682
0.016897663 -0.024223937 -0.0049959533 -0.017373016 -0.031036086 -0.027034473 -0.0024682912 0.02132878
-0.006516337 -0.012225635 -0.016250206 -0.013577902 -0.03044269 -0.024941945 0.0036085423 0.007031314
-0.0123970155 -0.003995504 -0.013159219 -0.02962792 -0.007949441 -0.020599138 -0.03188721 -0.015763775
0.004283147 -0.009822189 -0.015171717 -0.019367993 -0.01033772 0.00802658 -0.02477677 -0.026460012
0.00030546042 -0.02807581 -0.013879086 0.021621948 -0.004429113 -0.01918417 -0.0023698276 -0.009359302
-0.00798032 0.0066035753 -0.014198691 0.006127661 -0.016305357 0.00483303 0.00048112593 -0.020020265
-0.03171288 -0.02241512 0.013842671 -0.02113138 0.024490945 -0.010733633 -0.025540795 0.013677495
0.0010278567 0.008151926 -0.030680008 0.022291688 -0.0060660276 -0.028256569 -0.010638856 0.019666295
0.004278215 -0.025078623 -0.030860854 0.008923423 -0.024983134 -0.03502207 -0.019609995 -0.025854869
0.0073725 -0.020595277 -0.01738343 0.013950628 -0.026906129 -0.029277757 0.0029140005 -0.033449195
-0.03944154 0.0004397097 0.005450021 -0.006581959 0.020926297 -0.023759972 -0.022964204 0.0042456067
-0.008744543 0.00120172 0.026762327 -0.014662433 -0.006345754 -0.018687578 -0.006986052 0.0020475022
-0.025489379 -0.027304536 -0.0192493 -0.012792165 -0.009330112 -0.031937677 0.029717373 -0.022265455
0.006599399 0.01898487 -0.017017527 0.0062923636 -0.008121053 0.028217299 -0.01781975 -0.025804693
-0.026348367 -0.017509148 -0.037528113 -0.003041447 -0.028235698 0.0013925242 -0.027844207 -0.00074709015
-0.022204198 0.0062338617 -0.026436163 -0.025103351 -0.024639167 0.0012245605 -0.0068313777 -0.023697428
-0.016555445 0.020060603 -0.0050745085 0.01367154 0.0047463547 -0.017230306 -0.02586294 -0.038030103
-0.0016814318 0.02205783 -0.0069925287 -0.027877552 0.012756443 0.018698325 0.011210775 0.012133941
-0.024957355 -0.0060438565 -0.021955974 -0.0337636 -0.021272942 0.00049664965 -0.03350814 0.0039448943
-0.024321986 0.00010762579 -0.029639749 -0.0071291137 0.0095068365 0.028980745 -0.036111195 -0.0017618658
0.009413606 0.008019135 -0.012776626 -0.03025085 -0.010684115 -0.009929627 0.0121750105 -0.031537794
0.013098125 -0.019651761 -0.027225588 -0.0021322188 -0.018434465 -0.0044718124 -0.005351835 -0.026540786
00000000: 2071 02bb c3b0 99bb 1997 babc c458 10bd
00000010: 6b08 61bc 80bb 0dbb 6090 b7bc 7c8c a6bc
00000020: 9b16 f8bc 85f3 ad3c e6b1 28bb 5a30 d4bc
00000030: 83ba 76bb d035 05bd ee70 19bd 053d 6ebc
00000040: a410 083a 8fab 833b b8a9 30bd 5cc4 8cbc
00000050: 4a47 8fbc 58d2 debc 3c17 cf3b 2a28 db39
00000060: fe11 b1bc edbe 6e3c c082 61bc 4d94 843c
00000070: 27e3 8cbc 4ada 5c3c 6f30 98bc ec5e ea3a
00000080: 6993 f7bb dbf9 07bd c38d 4dbc a15a c83b
00000090: c82c cd3c 21b5 bbbc 2878 10bb f633 08bd
000000a0: 5748 babc ea9a 27bb 4745 5dbc 32ee 1fbd
000000b0: 84f8 123c 1abc c13c a63e 1c3a 59f5 b5bc
000000c0: 92c4 0abd c4ee 8cbc 7133 a1bc 9b75 c7bc
000000d0: fa9d bbbb 7921 f2bc be21 b1bc 0f67 1bbd
000000e0: a562 bbbb bcb1 77bc 232d febc 0ba4 033d
000000f0: 77dd 643c 40a5 0c3c 0a85 943b 33c3 20bd
00000100: 34b4 f4bc ccbb ebbc d0c0 d0bc 10f0 84bc
00000110: 5448 bbbc 530c 073d 965b 25bc ce70 f63b
00000120: 2572 bbbc d67b 3ebb 9c82 a13b 0809 d43a
00000130: 97a4 2b3c 26b0 ebbc 370c 993a 8357 80bb
00000140: f86c 8a3c 4771 c6bc 18b5 a3bb db51 8ebc
00000150: 643f febc 6677 ddbc 0ec3 21bb b2b9 ae3c
00000160: ff86 d5bb 084e 48bc 271f 85bc d975 5ebc
00000170: f362 f9bc 0d53 ccbc 4b7d 6c3b f066 e63b
00000180: da1c 4bbc b8ec 82bb c499 57bc 40b6 f2bc
00000190: 5f3e 02bc 86bf a8bc 2a9c 02bd 0823 81bc
000001a0: a459 8c3b 3fed 20bc cb92 78bc a0a9 9ebc
000001b0: 8a5f 29bc eb81 033c a7f8 cabc abc2 d8bc
000001c0: 3426 a039 3eff e5bc 1b65 63bc 8320 b13c
000001d0: 1822 91bb 1f28 9dbc 1c4f 1bbb c257 19bc
000001e0: e3bf 02bc ce62 d83b a0a1 68bc 8cca c83b
000001f0: d092 85bc 655e 9e3b a13f fc39 8a01 a4bc
00000200: 5de5 01bd ea9f b7bc 5fcc 623c b71b adbc
00000210: 3ca1 c83c 1fdc 2fbc ee3a d1bc 9217 603c
00000220: 26b9 863a a88f 053c a454 fbbc 0f9d b63c
00000230: 87c5 c6bb 527a e7bc 994e 2ebc 361b a13c
00000240: 4530 8c3b af71 cdbc e7cf fcbc 8c33 123c
00000250: 6ea9 ccbc 4d73 0fbd 24a5 a0bc 97cd d3bc
00000260: 0395 f13b 6db7 a8bc b267 8ebc 2d91 643c
00000270: 3e6a dcbc e8d7 efbc d1f8 3e3b 0602 09bd
00000280: 748d 21bd d688 e639 1796 b23b 79ad d7bb
00000290: a06d ab3c 46a4 c2bc 6d1f bcbc bb1e 8b3b
000002a0: 4645 0fbc 0883 9d3a ab3c db3c b43a 70bc
000002b0: 0bf0 cfbb b116 99bc 40eb e4bb 632f 063b
000002c0: 1acf d0bc c3ad dfbc b5b0 9dbc 3b96 51bc
000002d0: 53dd 18bc 15d1 02bd d971 f33c 0b66 b6bc
000002e0: c53f d83b 2886 9b3c 5768 8bbc 2c30 ce3b
000002f0: 2a0e 05bc f727 e73c b9fa 91bc 5d64 d3bc
00000300: 88d8 d7bc 586f 8fbc 14b7 19bd 0353 47bb
00000310: 8d4e e7bc 5c85 b63a 8919 e4bc 5fd8 43ba
00000320: 94e5 b5bc 6c45 cc3b a790 d8bc 8ba5 cdbc
00000330: 14d8 c9bc 6f81 a03a c0d9 dfbb 1c21 c2bc
00000340: 499f 87bc 2256 a43c 1048 a6bb 98fe 5f3c
00000350: 4f87 9b3b 9226 8dbc 84de d3bc 74c5 1bbd
00000360: 7d63 dcba 9fb2 b43c 9521 e5bb 775f e4bc
00000370: 6600 513c 3b2d 993c 66ad 373c 70cd 463c
00000380: 5e73 ccbc 8b0b c6bb 04dd b3bc b34b 0abd
00000390: 9844 aebc 9831 023a d53f 09bd 2c44 813b
000003a0: e73e c7bc 28b5 e138 0fcf f2bc 579b e9bb
000003b0: 90c2 1b3c 0769 ed3c 55e9 13bd 68ee e6ba
000003c0: 863b 1a3c b162 033c 0e55 51bc a1d0 f7bc
000003d0: 6d0c 2fbc e0af 22bc b279 473c c62d 01bd
000003e0: 8599 563c bbfc a0bc 3208 dfbc b2bc 0bbb
000003f0: e003 97bc 4888 92bb 725e afbb 106c d9bc

bn1.running_mean f4 [256]
-0.061128918 -0.16197772 -0.32801458 -0.15863575 0.16513212 -0.004897227 -0.2882289 0.100036636
-0.08633788 -0.3425046 0.10740902 0.50501823 0.014407149 -0.06439479 -0.14090839 0.065828696
-0.27581447 0.12857994 0.13562475 0.07022682 0.11117327 0.041338924 0.30465943 -0.037563518
0.017495532 0.031780437 -0.1114426 0.30073074 -0.233389 0.012372354 -0.2831247 -0.08109653
0.074744396 -0.42816728 -0.00090166414 0.12446893 -0.032321177 0.21513571 0.4155683 0.14656796
0.025709795 0.08794679 0.08499732 -0.04313785 0.366681 0.14278959 0.14678225 0.23457548
-0.0125618195 -0.16822712 -0.4436022 -0.07274167 -0.22917798 0.08801634 -0.2638446 -0.38826153
0.033141013 0.23364036 0.10219889 0.36445183 -0.2150761 0.23877108 0.24897316 -0.0404135
-0.051264815 -0.12402615 -0.31048712 -0.022197392 0.016476337 0.28670296 0.05162567 -0.20028654
-0.04662954 -0.077721454 -0.17535579 -0.11795549 0.29365763 -0.48849267 0.012057496 -0.0712284
-0.1164087 -0.21735373 -0.002142874 0.2714185 -0.09444674 -0.04034033 -0.029136717 0.059248723
-0.019776637 0.055448204 -0.2952341 0.04067541 0.11129616 -0.1117555 -0.042142972 -0.076403014
0.03542504 -0.08157437 -0.044837583 -0.023340028 0.06670018 0.081553705 0.16783074 -0.025851697
0.18810156 -0.30636194 0.047315314 -0.028271683 0.072369926 0.032988816 -0.21553954 -0.30999085
0.13622472 -0.17721568 -0.14498031 -0.30953652 0.39643997 0.1289271 -0.07392765 -0.09972456
-0.20926893 -0.13348451 -0.15724069 0.0039477493 -0.3243633 0.24208358 0.070022784 0.07174652
-0.10856576 -0.014395538 0.27914846 -0.29120344 0.009595739 0.057144474 0.2129438 -0.32579067
0.15546192 0.59570205 -0.13549082 0.42547116 0.046283275 -0.0653743 0.15114984 -0.27608174
-0.23201343 0.21809356 -0.05870272 -0.16269685 -0.45307386 -0.0021423702 0.17328508 -0.055844802
0.2321942 -0.15543148 0.21322466 0.20030987 0.31123054 -0.40302795 -0.24220762 -0.13808589
-0.09559907 -0.19491062 -0.14383724 -0.23594013 0.12492571 -0.07231915 0.05642908 -0.02345636
0.10258313 0.38217333 -0.28076074 -0.27919236 -0.194685 0.0519399 -0.15971488 -0.15353519
-0.026182745 0.14642295 -0.19771871 -0.07055083 -0.14490774 -0.28395984 0.14773422 0.09355301
-0.077657774 -0.22614047 0.0589709 -0.04606032 -0.07499088 0.07750123 0.07783017 -0.118594944
-0.3252268 0.25105724 0.07504239 -0.0048262705 0.057530567 0.09940958 0.23231263 0.17273311
-0.06090452 0.10538411 -0.1561383 0.09411407 0.1896021 0.035711512 -0.11699037 -0.09296675
-0.08794054 0.1163183 -0.24644154 0.11721288 0.14441836 -0.20641127 -0.39401346 -0.010263169
-0.26390082 0.18372498 0.22414833 -0.11608848 -0.12948194 -0.2953298 -0.18989004 0.06910683
0.044664383 0.038482115 -0.14379464 -0.10693735 -0.17557034 -0.3272146 0.121992365 0.1339441
-0.22234908 -0.08849682 -0.16876926 -0.35059965 0.03975111 -0.34397715 -0.2100403 -0.13976292
-0.41180342 -0.054956578 -0.047691327 -0.188048 -0.09638914 0.04771404 -0.35925084 -0.21345785
0.14092748 -0.1508931 0.25660643 0.045098715 -0.03311883 -0.2952472 0.1588254 -0.2534078
00000000: 5162 7abd 7ddd 25be 87f1 a7be 6971 22be
00000010: 6518 293e eb78 a0bb bd92 93be 02e0 cc3d
00000020: ead1 b0bd c35c afbe 43f9 db3d e048 013f
00000030: f60b 6c3c 6ae1 83bd 4a4a 10be 32d1 863d
00000040: 8e37 8dbe 76aa 033e 37e1 0a3e 14d3 8f3d
00000050: d0ae e33d 0153 293d 52fc 9b3e 34dc 19bd
00000060: ca52 8f3c 342c 023d 053c e4bd 61f9 993e
00000070: 87fd 6ebe 6ab5 4a3c b8f5 90be f015 a6bd
00000080: 9713 993d be38 dbbe a85d 6cba 91e9 fe3d
00000090: 3663 04bd 894c 5c3e 5ec5 d43e e915 163e
000000a0: 599d d23c 721d b43d 1313 ae3d 50b1 30bd
000000b0: 9dbd bb3e 6f37 123e 164e 163e 8e34 703e
000000c0: 17d0 4dbc bb43 2cbe d41f e3be 96f9 94bd
000000d0: a2ad 6abe e941 b43d a416 87be 37ca c6be
000000e0: dfbe 073d 6b3f 6f3e a74d d13d 6e99 ba3e
000000f0: e93c 5cbe 6880 743e d2f2 7e3e a088 25bd
00000100: 0efb 51bd 6c01 febd 2bf8 9ebe 4ed7 b5bc
00000110: 62f9 863c bbca 923e 7075 533d ea17 4dbe
00000120: 9efe 3ebd 6d2c 9fbd 7890 33be a692 f1bd
00000130: 4b5a 963e b61b fabe ce8c 453c 32e0 91bd
00000140: af67 eebd fa91 5ebe 766f 0cbb 5ef7 8a3e
00000150: 4b6d c1bd e73b 25bd 20b0 eebc caae 723d
00000160: 9d02 a2bc a81d 633d ed28 97be 429b 263d
00000170: 3eef e33d 11e0 e4bd 1c9e 2cbd 2f79 9cbd
00000180: d919 113d 7710 a7bd 9da7 37bd 9633 bfbc
00000190: 1b9a 883d a105 a73d d2db 2b3e f0c6 d3bc
000001a0: b29d 403e 79db 9cbe b4cd 413d 049a e7bc
000001b0: af36 943d 481f 073d 66b6 5cbe 1fb7 9ebe
000001c0: 7e7e 0b3e 0778 35be b875 14be 927b 9ebe
000001d0: 2efa ca3e 7705 043e 6167 97bd 643c ccbd
000001e0: 984a 56be 2ab0 08be b403 21be 1f5c 813b
000001f0: f212 a6be c2e4 773e 1b68 8f3d d7ef 923d
00000200: ba57 debd 43db 6bbc 8cec 8e3e 9e18 95be
00000210: 7237 1d3c 5310 6a3d f10d 5a3e 09ce a6be
00000220: 6931 1f3e ee7f 183f 1bbe 0abe 5bd7 d93e
00000230: 8893 3d3d f6e2 85bd 06c7 1a3e 965a 8dbe
00000240: ee94 6dbe eb53 5f3e 4372 70bd 019a 26be
00000250: 4cf9 e7be 0267 0cbb a571 313e 85bd 64bd
00000260: 51c4 6d3e 6e29 1fbe 9157 5a3e 081e 4d3e
00000270: 9c59 9f3e ae59 cebe 4605 78be 6366 0dbe
00000280: 72c9 c3bd a696 47be 124a 13be 4a9a 71be
00000290: 0dd9 ff3d 101c 94bd 2e22 673d 8d27 c0bc
000002a0: 1b17 d23d 39ac c33e dfbf 8fbe 4df2 8ebe
000002b0: 815b 47be efbe 543d 4c8c 23be 5438 1dbe
000002c0: 327d d6bc e6ef 153e c676 4abe f47c 90bd
000002d0: b262 14be 2f63 91be a447 173e b898 bf3d
000002e0: 0a0b 9fbd 5e91 67be 788b 713d bfa9 3cbd
000002f0: d294 99bd f7b8 9e3d 6d65 9f3d e8e1 f2bd
00000300: 2184 a6be 938a 803e d3af 993d b125 9ebb
00000310: 2ca5 6b3d 4097 cb3d 5de3 6d3e f3e0 303e
00000320: 0577 79bd a0d3 d73d b8e2 1fbe e1be c03d
00000330: 0e27 423e 3c46 123d a698 efbd 5a65 bebd
00000340: 2b1a b4bd 4a38 ee3d 2c5b 7cbe 4e0d f03d
00000350: 68e2 133e 7a5d 53be 22bc c9be da26 28bc
00000360: 021e 87be 6722 3c3e 2487 653e ccbf edbd
00000370: ea96 04be 7835 97be 8972 42be e287 8d3d
00000380: 00f2 363d 6c9f 1d3d e73e 13be f801 dbbd
00000390: b6c8 33be ac88 a7be 22d7 f93d a428 093e
000003a0: 7aaf 63be d23d b5bd d9d1 2cbe cc81 b3be
000003b0: 0fd2 223d c61d b0be ce14 57be 031e 0fbe
000003c0: e6d7 d2be 261a 61bd fb57 43bd a88f 40be
000003d0: ab67 c5bd cc6f 433d baef b7be b294 5abe
000003e0: 4b4f 103e b983 1abe eb61 833e 6eb9 383d
000003f0: 9ca7 07bd a42a 97be 20a3 223e abbe 81be

bn1.running_var f4 [256]
0.024648212 0.027411152 0.024498112 0.02214646 0.028665118 0.022387458 0.022460874 0.025198879
0.023743112 0.024994694 0.027983978 0.020442856 0.029167676 0.021735149 0.029594973 0.020241294
0.022248888 0.023124874 0.024307184 0.022118764 0.025293786 0.022510774 0.0292581 0.02033818
0.027751675 0.01991079 0.022976492 0.02796939 0.025570096 0.0256841 0.021967093 0.020617388
0.026250094 0.030755479 0.02813375 0.022465408 0.032276373 0.025069833 0.025256887 0.028510384
0.021013364 0.024357714 0.02950595 0.027320188 0.023198094 0.025129808 0.021498647 0.022625757
0.02343632 0.024872 0.021186797 0.027550677 0.022756947 0.024242429 0.02914978 0.024761373
0.02779923 0.0226993 0.025544884 0.027157746 0.022095868 0.018450275 0.02706773 0.022481648
0.02080419 0.02507655 0.025842594 0.020554675 0.021859892 0.022271583 0.02375993 0.020289976
0.023500556 0.023716778 0.033069313 0.021896103 0.025336515 0.025618415 0.028776724 0.026029969
0.02865753 0.022368297 0.023054052 0.02468146 0.021881474 0.022768633 0.021325555 0.02584018
0.022988236 0.031150619 0.022008017 0.02514306 0.026156599 0.02193487 0.027701128 0.020340718
0.022127686 0.026696468 0.023281414 0.02114582 0.026986692 0.029547418 0.019345563 0.022337688
0.0311912 0.024904693 0.02501176 0.023091037 0.031783786 0.020975089 0.026370304 0.026665973
0.020700965 0.02106323 0.01917758 0.02075347 0.03323237 0.022981819 0.025535047 0.024382278
0.022701768 0.03158482 0.025896644 0.022930816 0.033646885 0.020024315 0.031350974 0.01917708
0.026354473 0.023571096 0.021626052 0.025579976 0.025243249 0.021824624 0.02569062 0.021153467
0.024287801 0.02489796 0.020877678 0.029605733 0.027929042 0.023412557 0.022033095 0.029457444
0.03200468 0.02402635 0.01858833 0.02574486 0.03286405 0.024737777 0.026142338 0.020356307
0.032968294 0.026701162 0.030524587 0.024176922 0.031232847 0.025414424 0.023234475 0.021555131
0.02250225 0.022378683 0.02762003 0.029465908 0.019677242 0.023019383 0.029469185 0.023401089
0.027481258 0.02006699 0.036070716 0.022964323 0.025998132 0.02158677 0.022622854 0.022706402
0.03331298 0.021221219 0.022909004 0.023130987 0.0216057 0.030024841 0.020671813 0.024386369
0.020500883 0.028394096 0.026019543 0.024316417 0.02720025 0.02071029 0.02480543 0.024002405
0.032141857 0.031287596 0.023932198 0.022813797 0.026666587 0.027213806 0.01918198 0.019944798
0.023456974 0.02884478 0.020510819 0.032070063 0.03443387 0.027962986 0.0214367 0.024356568
0.025221089 0.023064438 0.026623027 0.025725001 0.019367138 0.02486484 0.023422325 0.024215339
0.021921767 0.029480131 0.020156533 0.019544313 0.02287203 0.028670693 0.021757336 0.017956804
0.021954712 0.019500488 0.025676027 0.027730614 0.024588412 0.026994023 0.024664411 0.022647237
0.025715677 0.026464999 0.021863302 0.021451838 0.028782591 0.020839691 0.03087221 0.025701858
0.027259653 0.027553981 0.025975697 0.021293553 0.019939007 0.020433802 0.021756738 0.022786913
0.023918577 0.026244003 0.025155421 0.022164801 0.020670744 0.025387246 0.023608755 0.03016098
00000000: 0ceb c93c 5a8d e03c 44b0 c83c 7e6c b53c
00000010: 1cd3 ea3c e765 b73c deff b73c e16d ce3c
00000020: ea80 c23c acc1 cc3c a83e e53c c777 a73c
00000030: 0df1 ee3c e90d b23c 2871 f23c 12d1 a53c
00000040: 4d43 b63c 6070 bd3c dc1f c73c 6932 b53c
00000050: ea34 cf3c 8468 b83c afae ef3c 419c a63c
00000060: 7b57 e33c f41b a33c 3239 bc3c 1020 e53c
00000070: 6178 d13c 7667 d23c 55f4 b33c cce5 a83c
00000080: 700a d73c eaf2 fb3c c078 e63c 6009 b83c
00000090: 3b34 043d 405f cd3c 88e7 ce3c 9c8e e93c
000000a0: 3824 ac3c d489 c73c 76b6 f13c 96ce df3c
000000b0: ee09 be3c 07dd cd3c ee1d b03c a759 b93c
000000c0: 86fd bf3c 5dc0 cb3c ef8f ad3c f5b1 e13c
000000d0: c76c ba3c 0f98 c63c 85cb ee3c 5dd8 ca3c
000000e0: 36bb e33c e2f3 b93c 8143 d13c ec79 de3c
000000f0: 6502 b53c 0825 973c 25bd dd3c 6f2b b83c
00000100: 8c6d aa3c 566d cd3c d9b3 d33c 4762 a83c
00000110: 8413 b33c e572 b63c 2fa4 c23c 2a37 a63c
00000120: 3d84 c03c b049 c23c b073 073d 755f b33c
00000130: 868e cf3c b6dd d13c 2abd eb3c cd3c d53c
00000140: 32c3 ea3c b83d b73c dadb bc3c c630 ca3c
00000150: c740 b33c 4985 ba3c eeb2 ae3c c9ae d33c
00000160: d351 bc3c 952f ff3c 284a b43c d2f8 cd3c
00000170: 5d46 d63c c2b0 b33c 7aed e23c 94a1 a63c
00000180: 1f45 b53c 8db2 da3c aab8 be3c 003a ad3c
00000190: 3213 dd3c 6d0d f23c 967a 9e3c 87fd b63c
000001a0: b084 ff3c ed04 cc3c 76e5 cc3c 6a29 bd3c
000001b0: b72f 023d f3d3 ab3c 8906 d83c 9972 da3c
000001c0: 1295 a93c cb8c ac3c 4d1a 9d3c 2e03 aa3c
000001d0: aa1e 083d 5e44 bc3c e02e d13c 58bd c73c
000001e0: 0ff9 b93c 165f 013d 3325 d43c 68d9 bb3c
000001f0: 51d1 093d 080a a43c e169 003d 4019 9d3c
00000200: 56e5 d73c 2c18 c13c 1e29 b13c 198d d13c
00000210: eeca ce3c 8ec9 b23c 2375 d23c 094a ad3c
00000220: 36f7 c63c cef6 cb3c aa07 ab3c b987 f23c
00000230: 72cb e43c b1cb bf3c c07e b43c bd50 f13c
00000240: 5717 033d e8d2 c43c 8e46 983c e2e6 d23c
00000250: 749c 063d e1a6 ca3c 7528 d63c 45c2 a63c
00000260: c309 073d 65bc da3c b30e fa3c ae0e c63c
00000270: 07dc ff3c e931 d03c 3a56 be3c 6394 b03c
00000280: a356 b83c 8053 b73c 6743 e23c 7d62 f13c
00000290: 2b32 a13c 2593 bc3c 5c69 f13c a4b3 bf3c
000002a0: 6020 e13c 8763 a43c e3be 133d ad1f bc3c
000002b0: 09fa d43c bdd6 b03c 9053 b93c c702 ba3c
000002c0: 3173 083d 1fd8 ad3c aaab bb3c 327d bd3c
000002d0: 70fe b03c a8f6 f53c ef57 a93c ecc5 c73c
000002e0: 78f1 a73c bc9a e83c f026 d53c 3933 c73c
000002f0: 0fd3 de3c a0a8 a93c c234 cb3c b1a0 c43c
00000300: 2ea7 033d 6c27 003d 750d c43c 00e4 ba3c
00000310: e373 da3c 7def de3c 8723 9d3c 4663 a33c
00000320: d728 c03c e34b ec3c 4e06 a83c e65b 033d
00000330: 880a 0d3d a212 e53c 059c af3c 6d87 c73c
00000340: 759c ce3c a2f1 bc3c 8918 da3c 3dbd d23c
00000350: d5a7 9e3c 59b1 cb3c 2de0 bf3c 3f5f c63c
00000360: 4795 b33c 5180 f13c 501f a53c 651b a03c
00000370: 205e bb3c cdde ea3c 713c b23c 261a 933c
00000380: 5eda b33c 7dbf 9f3c 8856 d23c 502b e33c
00000390: a36d c93c 9222 dd3c 050d ca3c b386 b93c
000003a0: afa9 d23c 20cd d83c ab1a b33c c4bb af3c
000003b0: 78c9 eb3c 00b8 aa3c b8e7 fc3c b48c d23c
000003c0: a34f df3c e3b8 e13c fcca d43c d16f ae3c
000003d0: 2157 a33c ca64 a73c 303b b23c 9fab ba3c
000003e0: e4f0 c33c aafd d63c be12 ce3c f592 b53c
000003f0: b155 a93c eaf8 cf3c 2667 c13c 2914 f73c

fc2.weight f4 [256, 256]
0.0014161458 0.026082223 0.007127274 -0.044467293 0.032219376 -0.01678044 0.03058505 0.06734327
-0.059562676 0.0032692046 0.020922327 -0.012447619 -0.058954753 0.007849486 -0.0369914 -0.0110312635
-0.038985755 0.048202433 -0.028624995 0.00407789 0.06944325 -0.014720569 0.02910979 0.08121296
0.014590602 0.044398814 0.015573806 -0.031692754 -0.080527574 0.009084017 0.026172517 0.03409586
0.019298168 0.043644756 0.008694596 0.048583463 0.05657738 -0.013846637 0.02875841 0.060086776
-0.0150774205 0.053715438 0.010224821 -0.027408693 0.0041162893 -0.030491853 -0.053945053 0.044327106
-0.048254225 0.015744671 0.016430682 0.012522114 -0.028154189 0.019541353 -0.019534705 0.042984813
0.036036238 0.053943887 0.055523794 0.033006873 0.0009164413 -0.0005486418 -0.033351462 -0.015818762
-0.01590815 -0.006892674 -0.053836312 0.035930965 -0.04880872 0.0045177457 -0.035520677 0.021749914
-0.02270198 0.040949777 -0.021980535 -0.025888694 -0.047436245 -0.041533947 -0.009876681 -0.025373781
0.005063041 0.019851357 0.06817697 -0.06430676 0.03857988 -0.047565233 -0.053363055 0.03614917
-0.0014199129 -0.00029534346 -0.038077157 0.030943915 0.027944563 0.011310437 -0.0113879405 -0.019105589
-0.02878878 -0.016382294 0.064601295 0.016171174 -0.04772609 -0.040153995 0.042054206 -0.029241512
-0.0585311 0.045232855 0.05318591 -0.027585428 0.005020312 0.08890172 -0.016064733 -0.03452067
0.019265294 0.025249824 -0.0032125704 -0.041126616 0.06812169 0.064332105 -0.017674329 -0.0054521123
-0.061976224 0.050211962 -0.019074082 0.0036984268 0.056037463 0.03229764 -0.051995568 -0.0667163
-0.046635628 -0.011978822 0.03226438 -0.0041491543 -0.019237604 0.05019004 0.0011417859 -0.059425
-0.02470052 -0.009441226 0.06724887 0.071547985 -0.048933614 0.010636468 0.011369781 -0.06162439
-0.04180469 0.010453336 0.021841154 -0.053872116 0.07074628 -0.016522124 -0.005672709 0.017696276
0.035342 -0.008580449 -0.015583312 0.0015012653 0.031523634 -0.03133879 -0.05519534 0.044101335
-0.041126385 0.027512461 0.04369758 -0.07446607 0.002111401 -0.023976173 -0.007045046 -0.022034485
-0.012027125 0.018300684 -0.06685151 0.000813356 -0.013465639 -0.005745451 -0.01822143 -0.036237624
0.06019133 -0.042794466 0.03747818 -0.022333344 -0.007914193 0.015115984 0.043812502 0.07113612
0.01984922 -0.0066595576 0.024493014 -0.0042639724 0.07945907 0.031264152 0.037817493 -0.033337817
-0.033823356 -0.055871252 0.014504491 0.029759716 -0.0063649816 0.021940036 -0.035154987 -0.041499626
0.06659214 0.07809448 -0.030079965 -0.002782463 0.005550874 -0.021298565 -0.02930422 -0.018359574
0.048856072 -0.049125675 -0.033389688 0.012775113 0.0018907515 0.008971336 -0.0014856905 0.06001025
0.012688391 -0.034499004 0.0081393635 -0.044518318 -0.022094436 0.015358931 -0.047949262 -0.00085693016
0.04026872 0.012939863 0.050240174 -0.008596213 -0.01160374 -0.007768004 -0.019128645 -0.046009198
-0.038999226 -0.008417952 -0.033211432 0.015369397 0.020177398 -0.00026906014 0.021554017 -0.04670383
-0.021731855 -0.0118479105 -0.03008376 0.0014590776 0.046113946 0.023925552 -0.07066579 -0.056206115
0.023603676 -0.03808663 0.06572479 0.057628274 0.023133326 -0.040723763 0.05980897 0.0026712834
00000000: f89d b93a 63aa d53c e88b e93b 5623 36bd
00000010: 77f8 033d 2277 89bc 808d fa3c 45eb 893d
00000020: fef7 73bd 2740 563b 4d65 ab3c 19f1 4bbc
00000030: 8a7a 71bd 219b 003c 4b84 17bd 79bc 34bc
00000040: 87af 1fbd ea6f 453d f77e eabc d29f 853b
00000050: 4338 8e3d 8b2e 71bc a877 ee3c fb52 a63d
00000060: 6c0d 6f3c 88db 353d 4729 7f3c 43d0 01bd
00000070: a4eb a4bd 21d5 143c bf67 d63c 1aa8 0b3d
00000080: 3117 9e3c d8c4 323d c773 0e3c 74ff 463d
00000090: afbd 673d 01dd 62bc c296 eb3c 8d1d 763d
000000a0: 4907 77bc b804 5c3d 0286 273c 3288 e0bc
000000b0: f0e1 863b 0dca f9bc 7df5 5cbd 5790 353d
000000c0: 39a6 45bd f8fa 803c a399 863c 8e29 4d3c
000000d0: 9da3 e6bc 3015 a03c 3f07 a0bc d810 303d
000000e0: bc9a 133d 44f4 5c3d eb6c 633d 3732 073d
000000f0: 563d 703a bad2 0fba 8b9b 08bd 5996 81bc
00000100: cf51 82bc f1db e1bb 7783 5cbd 592c 133d
00000110: a7eb 47bd 9909 943b 217e 11bd e02c b23c
00000120: 81f9 b9bc f4ba 273d 8610 b4bc 8714 d4bc
00000130: 824c 42bd 801f 2abd cdd1 21bc addc cfbc
00000140: dee7 a53b 509f a23c 5ea0 8b3d 43b3 83bd
00000150: f005 1e3d c3d3 42bd 3893 5abd 2711 143d
00000160: 5f1c baba 54d8 9ab9 cbf6 1bbd 187e fd3c
00000170: ffeb e43c 694f 393c 7c94 3abc 5383 9cbc
00000180: 73d6 ebbc 2934 86bc af4d 843d 6979 843c
00000190: 6f7c 43bd 8478 24bd 0841 2c3d e58b efbc
000001a0: 4fbe 6fbd 1646 393d 78d9 593d d6fa e1bc
000001b0: 6e81 a43b 1b12 b63d 309a 83bc 8c65 0dbd
000001c0: 40d2 9d3c b8d8 ce3c fd89 52bb 6274 28bd
000001d0: 6283 8b3d 8dc0 833d c1c9 90bc a2a7 b2bb
000001e0: c8da 7dbd 0fab 4d3d 4041 9cbc 4e61 723b
000001f0: 8a87 653d 884a 043d 4ef9 54bd 8ea2 88bd
00000200: 0005 3fbd d242 44bc a827 043d a1f5 87bb
00000210: 2e98 9dbc 1294 4d3d faa7 953a a167 73bd
00000220: bf58 cabc 5faf 1abc c7b9 893d c087 923d
00000230: 9d6e 48bd 9544 2e3c 5148 3a3c db69 7cbd
00000240: 653b 2bbd 7844 2b3c 38ec b23c 02a9 5cbd
00000250: 6de3 903d 6859 87bc 22e2 b9bb c8f7 903c
00000260: c6c2 103d 0395 0cbc 2651 7fbc 1bc6 c43a
00000270: ed1e 013d 1a5d 00bd 8214 62bd 9aa3 343d
00000280: 2474 28bd d061 e13c 3cfc 323d ab81 98bd
00000290: 6e5f 0a3b ae69 c4bc 21da e6bb aa81 b4bc
000002a0: 6b0d 45bc 51eb 953c 72e9 88bd 6637 553a
000002b0: fc9e 5cbc 5644 bcbb 1c45 95bc e76d 14bd
000002c0: 2f8b 763d 4049 2fbd b882 193d 6bf4 b6bc
000002d0: 88aa 01bc 08a9 773c bd74 333d d0af 913d
000002e0: d59a a23c 6b38 dabb 93a5 c83c cbb8 8bbb
000002f0: 70bb a23d d70e 003d 84e6 1a3d 3c8d 08bd
00000300: 5c8a 0abd 41d9 64bd 3fa4 6d3c a6ca f33c
00000310: 5691 d0bb 97bb b33c adfe 0fbd 83fb 29bd
00000320: 7661 883d 00f0 9f3d 426a f6bc fc59 36bb
00000330: 1be4 b53b 547a aebc 670f f0bc d166 96bc
00000340: 4e1d 483d 0138 49bd a0c3 08bd b54e 513c
00000350: 18d3 f73a 83fc 123c 80bb c2ba 4fcd 753d
00000360: f8e2 4f3c d44e 0dbd f75a 053c d758 36bd
00000370: 64ff b4bc 07a4 7b3c 7266 44bd 9ca3 60ba
00000380: d0f0 243d b801 543c a4c8 4d3d 21d7 0cbc
00000390: 9d1d 3ebc be8a febb adb3 9cbc 2474 3cbd
000003a0: a7bd 1fbd 73eb 09bc b608 08bd eccf 7b3c
000003b0: 124b a53c a410 8db9 0d92 b03c 844c 3fbd
000003c0: 0107 b2bc bd1d 42bc 3872 f6bc 853e bf3a
000003d0: fae1 3c3d 85ff c33c 3ab9 90bd 6238 66bd
000003e0: 7f5c c13c ba00 1cbd b89a 863d a00b 6c3d
000003f0: 1a82 bd3c f6cd 26bd 40fa 743d b310 2f3b

fc2.bias f4 [256]
-0.05759825 0.022608425 0.024846977 0.04398776 -0.04822774 -0.040870667 0.001636086 0.043154277
-0.04213848 0.034127474 0.056650583 0.040063985 0.05239662 0.021319784 0.029562045 0.001018353
0.008800736 0.046675153 -0.0018419721 0.018815007 0.00029002607 0.021370197 -0.03064392 -0.0023668269
-0.050757915 0.013949062 -0.021172201 -0.021282805 -0.005956522 -0.011616273 -0.0136205675 -0.002939376
-0.054247618 -0.039076086 -0.011503415 -0.027875021 0.03041805 -0.055564187 0.017652022 0.053187948
-0.011797807 0.055420123 0.050111774 0.016519327 0.002416311 -0.03898326 -0.049141683 0.011241414
-0.023439828 0.0032026782 -0.007612861 0.030103944 0.027207417 0.028791336 0.054976944 0.033282258
-0.0008093452 -0.011126277 0.03337732 0.01673529 -0.0063398317 -0.049418353 -0.058777217 0.035725117
-0.042436227 -0.03660956 -0.0055478835 -0.0065158433 -0.03940565 0.038256332 -0.054056894 -0.0009342815
-0.054168075 -0.008889778 -0.05479002 -0.062180992 0.05400082 0.005505934 0.04926848 -0.020699076
0.015996384 -0.062252406 0.012647175 -0.040149923 -0.062129013 -0.021446534 -0.055277713 -0.0044321283
-0.03466672 -0.022153538 -0.007846916 -0.028796598 0.020069571 0.04465705 0.058565397 -0.016208518
-0.0128548145 0.0066946736 -0.035859406 -0.0020652849 0.028037615 -0.013312459 0.04977459 0.016905457
0.020485245 -0.055312146 -0.007359405 -0.052410495 -0.03510061 -0.016172344 0.03745349 -0.026903275
-0.013981138 -0.061019108 -0.027631452 0.0068214573 -0.021273468 -0.032963306 -0.027636932 0.047637675
-0.03497035 -0.055393167 0.008569041 -0.034891788 0.005959802 -0.014102147 -0.035876956 0.03225742
0.053418472 -0.004060195 -0.03933675 -0.030040393 0.015889758 0.023596521 0.04918007 0.03235271
0.0077033946 0.04984949 0.050282143 0.009051776 0.010589552 -0.023019945 0.050566666 0.03555338
-0.015538396 0.060510337 -0.01512395 0.014849103 0.025867764 0.007201363 0.028032823 0.057776432
-0.010937424 -0.061752845 0.028550092 -0.04403296 -0.012231653 -0.005801007 -0.025315337 0.0313101
0.017079962 0.03829439 -0.052557122 0.008252198 -0.05165238 -0.047815282 -0.007434982 -0.063247904
0.011999315 -0.055512264 0.009320663 -0.024579734 0.003663711 0.04089699 0.006504605 0.031189485
-0.0213524 0.001475775 0.016884893 0.030763026 -0.03792898 -0.032832645 0.021825127 0.06113325
0.032551743 -0.0594814 -0.056419205 -0.056787953 0.061863918 -0.024353137 0.028358003 0.019682512
0.020233734 -0.055168092 -0.04951327 -0.02916501 -0.024683854 0.044283457 0.018483195 -0.005323699
0.03452343 0.0017094475 -0.033209696 0.005320658 -0.02798751 0.022739254 0.04712307 -0.0123724155
0.052711956 0.04395394 0.052973706 0.02169052 0.019098492 0.041014165 -0.00597936 0.05011181
-0.0140961185 -0.05466502 0.056280937 0.052268606 0.027000764 0.031989217 -0.04548192 0.04003647
0.034152508 -0.0024938094 -0.04732867 -0.03023024 -0.021589307 0.0076028924 0.007861275 -0.051284675
0.025882928 0.045616742 -0.022625994 -0.059879262 0.0032189393 -0.039897207 -0.04405355 -0.037094828
-0.03913005 -0.042636525 0.05497359 -0.031098535 0.04729986 0.00069891056 -0.058123335 0.04528099
-0.03211919 0.046101093 0.0035926385 -0.019199846 0.043232165 -0.01598281 0.06046523 -0.01269697
00000000: 25ec 6bbd 4e35 b93c e38b cb3c 822c 343d
00000010: 738a 45bd 0068 27bd f071 d63a 8ac2 303d
00000020: 6699 2cbd 40c9 0b3d 710a 683d 221a 243d
00000030: d79d 563d d4a6 ae3c 1a2c f23c 427a 853a
00000040: f630 103c 722e 3f3d 546e f1ba ee21 9a3c
00000050: a40e 9839 8d10 af3c f508 fbbc c41c 1bbb
00000060: 88e7 4fbd 9b8a 643c 5371 adbc 4759 aebc
00000070: ee2e c3bb 2e52 3ebc cd28 5fbc 8ca2 40bb
00000080: c032 5ebd 3f0e 20bd d278 3cbc 285a e4bc
00000090: 462f f93c 4697 63bd f99a 903c 9bdb 593d
000000a0: 974b 41bc 3600 633d 0142 4d3d 8a53 873c
000000b0: f95a 1e3b e9ac 1fbd ca48 49bd e82d 383c
000000c0: e204 c0bc 06e4 513b 4f75 f9bb 8c9c f63c
000000d0: 17e2 de3c cfdb eb3c 812f 613d fa52 083d
000000e0: 3d2a 54ba fd4a 36bc a8b6 083d 7218 893c
000000f0: 5dbe cfbb e66a 4abd 61c0 70bd 8054 123d
00000100: 9cd1 2dbd e8f3 15bd 05cb b5bb db82 d5bb
00000110: d267 21bd acb2 1c3d c36a 5dbd 92ea 74ba
00000120: 58df 5dbd 6ea6 11bc 806b 60bd 7fb1 7ebd
00000130: f72f 5d3d 1f6b b43b bfcd 493d 1c91 a9bc
00000140: d90a 833c 61fc 7ebd 1936 4f3c 3f74 24bd
00000150: fe7a 7ebd a4b0 afbc e26a 62bd 633b 91bb
00000160: b1fe 0dbd 567b b5bc 5a90 00bc d8e6 ebbc
00000170: f168 a43c 50ea 363d 45e2 6f3d bac7 84bc
00000180: 009d 52bc fe5e db3b 50e1 12bd bb59 07bb
00000190: 24af e53c 801c 5abc 71e0 4b3d 507d 8a3c
000001a0: acd0 a73c fd8e 62bd 2a27 f1bb 63ac 56bd
000001b0: a8c5 0fbd dd7b 84bc d568 193d 4264 dcbc
000001c0: 2511 65bc 2cef 79bd 5b5b e2bc 8886 df3b
000001d0: b245 aebc 8804 07bd d966 e2bc b91f 433d
000001e0: 123d 0fbd f2e3 62bd 2a65 0c3c b1ea 0ebd
000001f0: 714a c33b b10c 67bc b7f3 12bd 5b20 043d
00000200: 54cd 5a3d 620b 85bb 921f 21bd 4517 f6bc
00000210: 3d2b 823c 7e4d c13c 0b71 493d 4684 043d
00000220: c26c fc3b fb2e 4c3d a6f4 4d3d e64d 143c
00000230: cd7f 2d3c 5394 bcbc fe1e 4f3d 6ca0 113d
00000240: c294 7ebc b0d9 773d 72ca 77bc a749 733c
00000250: a2e8 d33c 69f9 eb3b 17a5 e53c fba6 6c3d
00000260: e232 33bc 8df0 7cbd e2e1 e93c e85b 34bd
00000270: 4567 48bc 6016 bebb 1c62 cfbc 053f 003d
00000280: 47eb 8b3c 94da 1c3d 2346 57bd 3a34 073c
00000290: 7291 53bd f5d9 43bd 26a1 f3bb 1e88 81bd
000002a0: c698 443c d460 63bd b2b5 183c 705b c9bc
000002b0: df1a 703b 9a83 273d 9524 d53b 1781 ff3c
000002c0: 3aeb aebc cb6e c13a 3052 8a3c be02 fc3c
000002d0: 6b5b 1bbd 867b 06bd 9cca b23c dc66 7a3d
000002e0: fa54 053d c5a2 73bd d317 67bd 7c9a 68bd
000002f0: 0565 7d3d 3b80 c7bc 0b4f e83c 383d a13c
00000300: 37c1 a53c f0f7 61bd 6dce 4abd 76eb eebc
00000310: cb35 cabc 9262 353d 126a 973c 6d72 aebb
00000320: 7168 0d3d 8a0f e03a e406 08bd ea58 ae3b
00000330: 1046 e5bc ac47 ba3c 1f04 413d acb5 4abc
00000340: 7ee8 573d 0c09 343d f5fa 583d 51b0 b13c
00000350: 7174 9c3c 78fe 273d 82ee c3bb 0b42 4d3d
00000360: 68f3 66bc 6ee8 5fbd d786 663d 9b17 563d
00000370: b530 dd3c 2007 033d 404b 3abd 48fd 233d
00000380: 80e3 0b3d 2e6f 23bb b5db 41bd 69a5 f7bc
00000390: 0fdc b0bc af21 f93b 94cc 003c e10f 52bd
000003a0: 6f08 d43c 9fd8 3a3d 265a b9bc f543 75bd
000003b0: d7f4 523b 416b 23bd 7f71 34bd bff0 17bd
000003c0: d546 20bd a3a3 2ebd fd2b 613d 5bc2 febc
000003d0: 7fbd 413d 1837 373a bc12 6ebd 8f78 393d
000003e0: 698f 03bd 80d4 3c3d 7972 6b3b ff48 9dbc
000003f0: 3614 313d 62ee 82bc 64aa 773d f406 50bc
